src/models/model2.pth (torch, 65497 bytes, 4 tensors)

weight f4 [20, 784]
0	0x3c2ee9d8	0.01067587
1	0xbbe8b45c	-0.0071015786
2	0xbc73acea	-0.014872769
3	0x3d06ed63	0.032941233
4	0x3c1c6048	0.00954444
5	0x3b79e810	0.0038132705
6	0x3ce11892	0.027477536
7	0x3bf99650	0.0076167956
8	0x3d0838d1	0.03325731
9	0xbc97827a	-0.018494833
10	0xbbd61f48	-0.0065344907
11	0xbc9b1f37	-0.018935783
12	0xbcb34d79	-0.021887528
13	0x3d054e37	0.032545295
14	0xbcd98a69	-0.026555257
15	0x3c882ccb	0.016622921
16	0xbb5250d0	-0.0032091625
17	0x3d037361	0.032092456
18	0x3d076581	0.033055786
19	0x3cbd9fae	0.02314743
20	0x3cbebc20	0.023283064
21	0x3cab92b8	0.020943984
22	0xbc40a700	-0.011758566
23	0x3c3e927c	0.011631604
24	0x3c098030	0.008392379
25	0x3cb63e42	0.022246484
26	0xbcb51aac	-0.022107445
27	0xbcdbca9e	-0.026830014
28	0x3cd64b6c	0.02615901
29	0xbc7e348e	-0.01551546
30	0x3ce57c42	0.028013352
31	0x3c1a3f10	0.009414449
32	0x3c6fc190	0.014633551
33	0xbcdee99a	-0.027211
34	0x3c9b492c	0.01895579
35	0x3cd3acdc	0.025839262
36	0xbc707781	-0.014676929
37	0xbbb64f1c	-0.00556363
38	0x3cc39c36	0.023878198
39	0x3c2816f2	0.010259377
40	0xbccea4a5	-0.025224993
41	0xbc90982a	-0.017650682
42	0xbc804c31	-0.01566133
43	0x3b9b7443	0.004744084
44	0xbb12fd69	-0.0022428876
45	0xbcf6b570	-0.030115813
46	0x3b70ae45	0.0036724966
47	0x3c09ecbc	0.008418258
48	0x3b552f30	0.0032529347
49	0xbc50105c	-0.012699213
50	0x3cff88b2	0.031193111
51	0xbbe34a88	-0.006936375
52	0xbca79185	-0.020455131
53	0xbc5bb3fc	-0.013409611
54	0x3cd6ed28	0.026236132
55	0xbc403720	-0.011731893
56	0x3c0eb848	0.008710928
57	0x3bbd8098	0.005783152
58	0x3b7b44d0	0.0038340576
59	0xbd02ec83	-0.031963836
60	0x3ccd3b10	0.025052577
61	0xbd06ba03	-0.03289224
62	0x3cf58025	0.02996833
63	0xbcf983ca	-0.03045835
64	0xbcf5ce68	-0.030005649
65	0x3cc36ed8	0.023856565
66	0xbca41d0b	-0.02003338
67	0xbc80d3e1	-0.015726032
68	0xbcaf968b	-0.02143409
69	0xbc01f98c	-0.007933032
70	0xbcb1d016	-0.021705668
71	0xbc9a5bcc	-0.0188426
72	0xbcad0e92	-0.021125112
73	0x3cdebdcd	0.027190113
74	0x3c9d598c	0.019207738
75	0xbc9ead41	-0.019369723
76	0x3cdf4e37	0.027258975
77	0xbcc9808f	-0.024597434
78	0x3b2b4e29	0.0026139116
79	0xbd0761ae	-0.03305214
80	0x3c4958f1	0.012289272
81	0xbb97057e	-0.004608809
82	0xbc5c7680	-0.013455987
83	0x3c8e6648	0.017382756
84	0xbcfc39aa	-0.030789215
85	0x3abfee00	0.0014643073
86	0xbcc9a603	-0.024615293
87	0xbd0fe323	-0.035128724
88	0x3b9c0c08	0.0047621764
89	0xbbca633a	-0.0061763795
90	0x3c7ee8ae	0.015558405
91	0x3b877b70	0.004134588
92	0x3c847a45	0.016171584
93	0xbc9c7050	-0.019096524
94	0x3d08c010	0.03338629
95	0x3ca8ef1e	0.020621832
96	0x3d0a3f75	0.033751924
97	0xbce77739	-0.028255092
98	0x3cc43d04	0.023954876
99	0x3b55cd70	0.003262367
100	0xbce8e6ba	-0.028430331
101	0xbb13f2db	-0.0022575173
102	0xbcd40cc7	-0.025884999
103	0xbc5207b5	-0.01281922
104	0x3d10f8c3	0.035393488
105	0x3cf2a492	0.029619489
106	0xbbfdd5fe	-0.007746457
107	0xbd0b3510	-0.03398615
108	0xbb86b7e8	-0.004111279
109	0x3ca6f32a	0.020379622
110	0xbd04ec72	-0.032452054
111	0x3cecf5d2	0.02892581
112	0xbd034667	-0.032049563
113	0x3cf67716	0.030086081
114	0xbc0155c5	-0.007893984
115	0xbd012f3e	-0.031539194
116	0xbcc1d7b4	-0.023662426
117	0x3d06eb26	0.0329391
118	0x3cbcfd6b	0.023070058
119	0x3cc77389	0.024347084
120	0x3d0130c2	0.03154064
121	0x3cfa40a8	0.030548409
122	0x3cd725c6	0.026263129
123	0xbcca336a	-0.02468272
124	0x3b2166b4	0.0024627866
125	0x3bf366a8	0.007428009
126	0x3c71d8ca	0.014761159
127	0xbc3abe7e	-0.011397956
128	0xbcc23dab	-0.023711046
129	0xbcbf7e08	-0.023375526
130	0x3ccb0462	0.024782363
131	0xbd0d4d19	-0.034497354
132	0x3cc869b1	0.02446446
133	0xbbc7fe02	-0.006103278
134	0x3ca71c29	0.02039917
135	0x3cad8d0d	0.021185422
136	0xbcc54c91	-0.024084361
137	0xbcdfd073	-0.027321076
138	0xbd0b2910	-0.033974707
139	0x3ca1eb7c	0.019765608
140	0x3bf176c0	0.0073688924
141	0x3c907d48	0.017637864
142	0xbd0a7f9c	-0.033813104
143	0x3cdd1e59	0.02699201
144	0x3c4c2884	0.012460832
145	0xbcb806fb	-0.022464266
146	0x3cb15756	0.02164809
147	0x3bbbebab	0.005734881
148	0xbcc8188f	-0.024425773
149	0xbc87d717	-0.016582055
150	0x3d08e0da	0.03341756
151	0xbbd6896b	-0.006547143
152	0xbc1362ca	-0.008995721
153	0x3d0944fc	0.033513054
154	0x3c6eba70	0.014570817
155	0x3c3ef6ae	0.011655493
156	0x3c3e8455	0.01162823
157	0x3c9a03d1	0.018800648
158	0x3c20bbd8	0.00981041
159	0x3cf97d13	0.030455148
160	0x3b7dd9a1	0.0038734453
161	0xbca1cb5d	-0.019750291
162	0x3cdaed6d	0.026724542
163	0x3b5cbad9	0.0033680706
164	0x3cab0378	0.020875677
165	0xbd058403	-0.0325966
166	0xbbccba40	-0.0062477887
167	0xbc23a652	-0.009988384
168	0xba9d15e0	-0.0011984669
169	0x3cc22660	0.02369994
170	0xbc3343e2	-0.0109414775
171	0x3ca53121	0.020165028
172	0x3c80af9a	0.015708733
173	0x3aa77381	0.0012775512
174	0x3cd092a7	0.025460554
175	0x3d109507	0.035298374
176	0xbcff4be0	-0.03116411
177	0x3c45aa10	0.012064472
178	0x3d1c3adb	0.038142066
179	0x3c13dbf8	0.009024613
180	0x3c14dc8d	0.0090857865
181	0xbcc58acf	-0.02411404
182	0x3c23836b	0.009980063
183	0x3cecda05	0.028912554
184	0x3ce8e7f4	0.028430916
185	0xbca760b6	-0.020431858
186	0xbaf221e2	-0.0018473233
187	0xbcc47e59	-0.023986029
188	0x39bb6cb6	0.00035748415
189	0x3cfca48d	0.030840183
190	0xb7c5db19	-2.3586255e-05
191	0xbcfc2dfa	-0.030783642
192	0x3c2bb139	0.010479265
193	0x3c88d185	0.01670147
194	0x3ca652fa	0.020303238
195	0x3b9e56b8	0.004832115
196	0xbc139a5a	-0.009008968
197	0x3b86377a	0.004095969
198	0xbcd9990c	-0.026562236
199	0xbce3d2ce	-0.02781048
200	0x38ed7f03	0.000113246984
201	0xbc934ca8	-0.017980888
202	0xbcd0b069	-0.025474744
203	0x3c949684	0.018138178
204	0x3ce4f894	0.027950563
205	0xbc96b1e2	-0.018395368
206	0x3c0901f7	0.008362285
207	0x3d374e86	0.04475262
208	0xbc84a301	-0.016191008
209	0x3c1aa648	0.009439059
210	0x3d18556d	0.037190843
211	0xbb6fdc87	-0.003659995
212	0x3d3a6297	0.04550418
213	0xbc7438d5	-0.014906128
214	0xbcb35c01	-0.021894457
215	0xbb822b71	-0.003972464
216	0xbc1b1045	-0.009464328
217	0xbc4816ef	-0.012212499
218	0x3c313c52	0.010817604
219	0xbd08ccfa	-0.033398606
220	0x3d02364d	0.031790067
221	0x3d11e8c6	0.03562238
222	0x3cfa94fc	0.03058862
223	0xbbf2d770	-0.007410936
224	0xbc79491b	-0.015215184
225	0xbce08fc3	-0.0274123
226	0xbc24cd46	-0.010058707
227	0xbcbc1455	-0.022958914
228	0x3cf48326	0.029847693
229	0xbc691219	-0.014225506
230	0xbbece4bf	-0.007229417
231	0x3ba29670	0.004961781
232	0x3c481009	0.012210854
233	0x3c568095	0.01309218
234	0x3cc384b4	0.023866989
235	0x3cdbe28e	0.026841428
236	0x3d1bd293	0.038042616
237	0x3d1aad74	0.037763074
238	0x3d3e3894	0.046440676
239	0x3cde2983	0.027119404
240	0x3c2e794e	0.0106490385
241	0x3cb55ac0	0.022138
242	0x38e8b497	0.000110962595
243	0x3c1a5836	0.009420445
244	0x3d25a712	0.040442534
245	0x3ad59b52	0.0016296899
246	0x3d249742	0.040183313
247	0x3b55362d	0.0032533512
248	0x3b3a10cd	0.0028391362
249	0xbc378bb3	-0.0112027405
250	0x3c022820	0.007944137
251	0xbc0eb544	-0.008710209
252	0xbc9049e3	-0.017613357
253	0xbabd17f0	-0.001442669
254	0xbcbf8a9e	-0.023381528
255	0xbcc73740	-0.024318337

bias f4 [20]
0	0x3d9b2888	0.0757609
1	0xbcc43e24	-0.023955412
2	0xbc98841a	-0.018617678
3	0xbb09644e	-0.0020964327
4	0xbaad9b34	-0.0013245107
5	0x3c916066	0.017746162
6	0x3c6cc0ef	0.014450296
7	0x3d172407	0.036899593
8	0x3cd7a760	0.026324928
9	0x3d00bfa3	0.03143276
10	0x3d0b4ec9	0.034010682
11	0x3c8bcfc5	0.017066846
12	0xbc6c6494	-0.014428277
13	0x3c169a90	0.009192124
14	0xbcccf30d	-0.02501824
15	0xbc0e8f88	-0.008701213
16	0xbc18c5de	-0.009324519
17	0x3cd7ce43	0.02634347
18	0xbcda28ec	-0.026630841
19	0x3c8eb58a	0.017420549

weight f4 [2, 20]
0	0x3d055115	0.03254803
1	0x3df9bdfb	0.12194439
2	0x3de8159a	0.11332245
3	0x3c93b69b	0.018031409
4	0xbce24a23	-0.027623242
5	0x3dbcd09c	0.092194766
6	0x3e6c724b	0.23090474
7	0x3e2d477f	0.16921805
8	0x3cd2641f	0.025682507
9	0x3e04d1c6	0.12970647
10	0x3e586223	0.21131186
11	0x3e5246d9	0.20534839
12	0x3d1e4c3a	0.038646914
13	0x3d9356ef	0.07194316
14	0x3de75b61	0.11296726
15	0x3e7a7e14	0.24462157
16	0xbe279a95	-0.16367562
17	0xbe2c68cc	-0.16836852
18	0xbe60a345	-0.21937282
19	0x3e5fb60e	0.21846792
20	0x3ea3e7d8	0.3201282
21	0xbe600880	-0.21878242
22	0xbe20d58b	-0.1570646
23	0xb7af80c1	-2.0921581e-05
24	0xbe3b4282	-0.1828709
25	0x3e787057	0.24261604
26	0xbdcc1d04	-0.09966472
27	0x3e041eef	0.12902425
28	0xbe4e662a	-0.2015616
29	0xbe5f6f9f	-0.21819924
30	0xbc7edfb8	-0.015556268
31	0xbe007ffc	-0.12548822
32	0x3dcec9c7	0.1009708
33	0xbd98b8cd	-0.07457123
34	0xbd5787d3	-0.052619766
35	0xbde36abf	-0.111043446
36	0xbda9c04f	-0.08288633
37	0xbe6467a0	-0.22305155
38	0xbe0964bb	-0.13417332
39	0xbdf869f9	-0.12129588

bias f4 [2]
0	0xbdccbe97	-0.0999729
1	0x3eb8b20d	0.36073342
